megen_molgym/scripts/models/Gallium_run-1_steps-3600.model (torch, 762707 bytes, 88 tensors)

distance_log_stds f4 [3]
00000000: 7d82 13c0 7182 13c0 8c82 13c0
-2.3048394 -2.3048365 -2.304843

scales f4 [1, 1, 1, 8]
00000000: 82a2 e939 b787 7f3f 32f5 ff3f 0b11 4040
00000010: ae9d 6c3a c384 7f3f f0cf ff3f 03fc 3f40
0.000445623 0.9981646 1.9996703 3.0010402 0.00090261817 0.99811953 1.9985332 2.9997566

phases f4 [1, 1, 1, 8]
00000000: f01c c93f 0cd8 efba b7f3 c7b9 d733 813a
00000010: eb2c c93f a5d2 c83f 77e0 c83f 6c06 c93f
1.5711956 -0.001829864 -0.0003813782 0.0009857368 1.5716833 1.5689284 1.5693501 1.5705085

scales f4 [1, 1, 1, 8]
00000000: efb7 94b9 3034 803f f906 0040 d71c 4040
00000010: cb8b 87ba 1f02 803f b4d7 ff3f 681a 4040
-0.000283658 1.0015926 2.0004256 3.0017602 -0.0010341344 1.0000647 1.9987702 3.0016117

phases f4 [1, 1, 1, 8]
00000000: e600 c93f 678b d23a 3f60 dd39 7c32 d53a
00000010: 27ea c83f 4a12 c93f 26e2 c83f cf44 c93f
1.5703399 0.0016063274 0.00042224114 0.0016265656 1.5696458 1.5708706 1.5694015 1.5724124

scales f4 [1, 1, 1, 8]
00000000: c42a e538 3b39 803f cd1e 0040 4e15 4040
00000010: af75 dbb8 123a 803f 3ef8 ff3f d0fe 3f40
0.00010927537 1.0017465 2.00188 3.0013003 -0.00010464654 1.0017722 1.9997633 2.9999275

phases f4 [1, 1, 1, 8]
00000000: f80f c93f 1c15 e33a af31 ed3a af57 a63a
00000010: 7307 c93f 334a c93f ba06 c93f 840e c93f
1.5707998 0.0017325017 0.0018096472 0.0012690927 1.5705398 1.5725769 1.5705178 1.5707555

weight f4 [20, 8]
00000000: 928b 3a3e c6cb 1fbe e75e 8cbd b45d 2b3e
00000010: 3ab3 a9be a28e 5a3e 06f6 94bd 0c9f 393e
00000020: 6f51 493d 6d51 31bd acd4 c83d 9086 823c
00000030: b1ae 023e 94a1 0ebe 942a d3bc fd8c 08bd
00000040: b9e6 513d b61f b9ba b73d 9e3e e00e dd3d
00000050: 94f5 08be 8cca 5cbe bfbb 72bd bc4b 1ebe
00000060: 8e07 e8bd 10ae 8a3c 40d2 573e f6f7 433e
00000070: a95c b1be 5b9f 5f3e f347 ca3d f04c ab3e
00000080: 99f7 6e3e fcee a4be 5d1d acbe 2a24 2ebe
00000090: 2e32 9f3e 884a 6fbd 18f0 1a3e 0bc3 27be
000000a0: 939e b13e 912d 19be 3ac0 873e 157b 2b3b
000000b0: 0656 40be 4a7c 383e 6b2d 40be 32bd d13d
000000c0: 2215 d1bd 7fc4 1ebd a307 aebe aac3 2ebe
000000d0: b94d 423e fa4e b4bd e14d b43e 0e07 903e
000000e0: 9e9d 87bc 9aa7 71be c577 5c3e 696e e03d
000000f0: b32c 6abe bd03 6b3e 59cb 5b3e eb78 a03e
00000100: bbf1 4abe fa5f 6ebd 7c6d e0bb 583d 583d
00000110: c3c9 88be b2ba 7fbe 60f3 443e 6a6d a7bd
00000120: a5d8 303e 501e a53c 3ebf ed3d 2eb9 9e3d
00000130: fa63 033e 4d38 333e e9a4 a7be 75fc 353e
00000140: cb8e 7ebe a994 88be 2323 b03c 8e12 73bd
00000150: 558f 553e 5dbe 50be 44ec a0be 0134 843e
00000160: 29bc 56bd 9aa1 4b3e 9ac7 e83d ade8 86be
00000170: 4dcc 943d c840 b13d f767 72be 791c 2abe
00000180: 8ae4 f63d d7b2 813d 5700 1abe f7c5 dcbd
00000190: 8765 a53e a58d 87bd 471d 4c3e dcf8 1b3e
000001a0: 3d06 6abe b6f1 99be 27c2 ad3e 1784 9b3c
000001b0: 84b2 783e 1f1f 973d 36e1 e83d 3f7b 873e
000001c0: 2ba5 ab3e f33d 70be b00f 353d f939 883e
000001d0: b546 843e f630 633e d201 83be 9d36 81be
000001e0: 62f3 5abe e6ed 353d 666a b43e 1521 66be
000001f0: 3a7c 3f3e 85d2 49be 7d32 aabe 8ac5 9cbd
00000200: 9d98 503e c60d a83e 0ed7 60be e70c 993d
00000210: 7c2c 9b3e 70dd 6d3e 7fa1 613e 383c 7f3e
00000220: d2fe 643e cc06 bb3d bf91 77be 43cf 96be
00000230: de7c 23be 2b02 1fbd 94e9 5dbe e6db 063e
00000240: d617 e03d e8f4 a3bd 6e25 0b3e 36d8 e93d
00000250: a2f4 5c3e c3ba 733e f535 f5bd aad1 b03e
00000260: fb6a 27bd de02 47bc 4ddc aabe 4e71 6abe
00000270: d2ee 54be e847 1cbe 01b3 803e d878 efbd
0.18217304 -0.15605077 -0.06854039 0.16734964 -0.33144552 0.21343473 -0.07273488 0.18127078
0.049149927 -0.043290544 0.09806189 0.015933305 0.12761952 -0.13928825 -0.025777139 -0.033337582
0.051245425 -0.001412383 0.3090646 0.10793853 -0.1337493 -0.2156164 -0.05926108 -0.15458578
-0.11329566 0.016928703 0.21076298 0.19137558 -0.34641007 0.21838133 0.098770045 0.33457136
0.23336639 -0.3221358 -0.33616152 -0.17005983 0.31092972 -0.058420688 0.15130651 -0.16382997
0.34691295 -0.14958788 0.26513845 0.0026165892 -0.18782815 0.18016163 -0.18767326 0.10241164
-0.10209109 -0.038761612 -0.339902 -0.17066827 0.18974961 -0.08804126 0.35215667 0.28130382
-0.01655465 -0.23599091 0.21530063 0.10958559 -0.22868614 0.22950645 0.2146429 0.31342253
-0.19818775 -0.058197 -0.006848989 0.052792877 -0.26716432 -0.24973562 0.19233465 -0.08175166
0.17270143 0.020156056 0.11608742 0.07750164 0.12831107 0.17501946 -0.32743004 0.17772086
-0.24859159 -0.2667592 0.02150113 -0.059343867 0.20855458 -0.20385118 -0.31430256 0.25820926
-0.052425537 0.19885865 0.11366196 -0.26349393 0.0726553 0.08654934 -0.23672472 -0.16612424
0.12055309 0.06332939 -0.15039192 -0.10779946 0.32304022 -0.066188134 0.19933043 0.15231651
-0.22853942 -0.30067223 0.3393719 0.018983884 0.24286848 0.07378983 0.113710806 0.26461217
0.3352445 -0.23461132 0.044204414 0.2660673 0.25835195 0.22186646 -0.25587326 -0.2523698
-0.21381906 0.04441633 0.35237426 -0.22473557 0.18699732 -0.19709213 -0.33241645 -0.07654865
0.20370717 0.32823008 -0.21957037 0.07473164 0.30307376 0.23229003 0.22034262 0.24925315
0.22362831 0.09132156 -0.24176691 -0.29455003 -0.15965602 -0.038820427 -0.21671134 0.13169822
0.10942046 -0.080056965 0.13588497 0.11418192 0.21577695 0.23801713 -0.11973182 0.3453496
-0.04087351 -0.01214668 -0.333712 -0.22894785 -0.20794228 -0.15261805 0.2513657 -0.11692971

bias f4 [20]
00000000: de8d 86be 01c0 093e 578f e33d 26ad 693e
00000010: 02dd 3abe 7cc6 993d 88f3 05be 1df9 a2bd
00000020: b9aa 8fbe e63f 25be 0ce7 dbbd 927c 1c3e
00000030: 9cb2 823d d3ed b33d d7d0 b53e 12b5 af3e
00000040: dee2 743e 47f3 5e3c d289 7abe 09c1 8c3e
-0.2628011 0.1345215 0.11111324 0.22819957 -0.1824837 0.07508561 -0.13081181 -0.07957671
-0.2805994 -0.16137657 -0.10737428 0.15281895 0.06381723 0.08785596 0.35510895 0.34317833
0.23914668 0.0136078065 -0.24466637 0.27491024

0 f4 [10, 30, 2]
00000000: d3f1 683e f005 773e f984 073e c538 76be
00000010: 4799 233e abfb f03d b7c2 fa3d 1397 1fbe
00000020: bc58 02be 5a21 1fbe 6b77 773e e579 8ebe
00000030: 9d98 98be 2578 a1bd 6bf8 793e 66e2 923e
00000040: 50ff a4be 317c 733c 6f3b 3f3c 25d6 f1bc
00000050: 72c5 973e 2992 04be dc89 873d 0660 803e
00000060: b66d 6fbd 3d12 8f3e eb76 963e 181d 1cbe
00000070: 4810 48bc 1b0b 9b3e c883 30be b54e 02be
00000080: 7d8f 4b3e 4dba 36be 5d8f cfbc cf95 6dbe
00000090: f930 423e 1524 873e 8e8d 08be 2eb7 c23d
000000a0: bd14 803e efb7 9d3e 436b ce3c 441a a9be
000000b0: 3163 a6be e6a0 4cbd b1f0 d53d 27ca 49be
000000c0: ed0d 3cbe d025 d33d 01b7 1abe 4650 9dbe
000000d0: c49e 71be e8ef 233d 5efa dd3d 5758 87be
000000e0: abf7 603e 0891 6cbd 888f 7f3d 3dfe 45be
000000f0: 6c94 913e cf60 e8bd 7688 133e c788 263e
00000100: 68ce fe3c 50ff 71be a3c8 283e fb45 893d
00000110: 5e7e a33e 375b 7fbe dee6 26ba a0b0 f03d
00000120: dd18 653e a525 743e d18d 9f3e 0a93 d5bd
00000130: 81fa 4bbe 2fff a83e 5481 6ebe 040b 393d
00000140: e150 5ebd 81ef 80be f4ae 613e f9a7 3bbe
00000150: 32cd 403e f7de 393e 088f 70be 0099 983e
00000160: 7216 8fbe 7bcf ef3d c746 92be 7f71 6ebe
00000170: b332 44bd e112 e6bd ea1e a73e f5f8 f7bd
00000180: 9e63 813d b389 c73d b967 1b3e 05b0 9f3d
00000190: d4d0 c23d 93da 60bd 48f8 1e3e a777 6dbe
000001a0: c3e7 60bd d2c8 84be 8814 7a3e b707 3cbe
000001b0: 0877 d1bd 63d2 9cbe c976 283d 14ee cc3d
000001c0: 93ee 893e b141 82be 7b37 2a3e ea31 963c
000001d0: 5653 673b e4b2 9b3e 0b8f dabd 2cb0 533e
000001e0: 5f2d 253e 8948 8a3e c281 70be 616e f83c
000001f0: 370b 663e e387 1dbe 7a46 c23d d281 14bd
00000200: 812c 3fbe eba9 b0bd 533f 7fbe f27c 3cbe
00000210: 85d3 4c3e 84f3 e6bd c765 30be e20c dd3c
00000220: 96c8 a13e bbc6 98bd 341e 9e3e c643 b1bd
00000230: 88b6 593e 7b82 d0bd 82be 3dbe 1344 243d
00000240: c8c1 cbbb 112e 2e3e f3c0 873e aa15 673e
00000250: bfa4 59bd fc35 30bd 0da4 e33d 707e a2be
00000260: bc14 04be 0cd7 46bd 274c 8f3e 113d 903e
00000270: aee4 1dbe eca5 803e 185d 2e3e 0e99 a2bd
00000280: ee2e 44be 5f33 9f3e bfa1 44be 2440 82be
00000290: 6fd4 72bc f4db d6bc abac bf3d 6ff5 1c3e
000002a0: 77d2 453e 2857 5e3e ddfd 283e a024 99be
000002b0: ff33 9d3e acb1 64be ac75 e33d 0602 0f3e
000002c0: 03b3 8abe 622b 0dbe c0e0 b83d 7d29 613e
000002d0: aeb5 533e 406e 8ebd 1451 503e e2d0 ad3d
000002e0: ed08 523e 23a0 92be 764f f6bd 2485 9c3e
000002f0: 1e71 2fbd 92b1 a23e e6ab b93d cc09 3fbd
00000300: 4bc3 f93d dcd5 3f3e 0e92 d33c ef35 193e
00000310: 2af5 213d 1c30 a4be d92b c3bd 7219 44be
00000320: 7d44 9c3e fd8f de3d c721 223e c20d 823c
00000330: d73b 003e f165 5abe 064e 56be 376b f6bc
00000340: 8b66 7dbe 1fe4 b73d 977e 7a3c d064 ca3d
00000350: 1446 583e a471 9e3e 24bc 4a3e 36ea 87bd
00000360: 529c 733d a2b5 eabd 309b 29bd 8255 10be
00000370: aaf0 f53d f1b5 a13e af18 dcbd 3c49 713c
00000380: 59ec 8ebe bb15 99be 4e2c cd3d 06d8 09bd
00000390: 84d3 a23e b8e6 25be fb9e 0ebe 98cf 52be
000003a0: 1bdb 2a3d 6e5a 82be e8d7 bcbd 22d2 54be
000003b0: 0885 933c bec7 a53e add2 9d3e 8c54 8e3d
000003c0: 5833 83be 5932 363e 0d4e 0f3e 5aad 36be
000003d0: b03c 5dbe 0e12 573e 21f9 adbd 0a72 9dbe
000003e0: d237 32be 74aa 85be 4df1 20be 1ba1 f7bd
000003f0: 3330 8cbd 6f7c a6be 476e 65be 7458 003e
0.22748499 0.24123359 0.13234319 -0.24045093 0.1597644 0.11766752 0.1224417 -0.15584974
-0.12729162 -0.15540066 0.24166648 -0.27827373 -0.29803935 -0.07884244 0.2441117 0.28688353
-0.32226038 0.0148611525 0.011671885 -0.029521057 0.29642826 -0.1294638 0.066180915 0.2507326
-0.058454238 0.27943602 0.29387602 -0.15245473 -0.012210913 0.3028191 -0.1723777 -0.12725337
0.19878955 -0.17844506 -0.025336916 -0.23201679 0.18963994 0.26394716 -0.13335249 0.09507595
0.25015822 0.30804393 0.02519763 -0.33027852 -0.32497552 -0.049958132 0.10446299 -0.19706021
-0.18364687 0.103099465 -0.15108873 -0.30725306 -0.2359572 0.040023714 0.108387694 -0.26434585
0.21969478 -0.0577555 0.06239274 -0.19335265 0.2843355 -0.1134659 0.14407524 0.16263114
0.031104282 -0.2363255 0.16482787 0.06702801 0.31932348 -0.2493714 -0.00063667994 0.117524385
0.22372766 0.23842485 0.31162885 -0.10428436 -0.19919778 0.3300719 -0.23291522 0.04517652
-0.05427635 -0.25182727 0.22039396 -0.18325795 0.18828276 0.1815146 -0.23492062 0.2980423
-0.27946812 0.11709496 -0.28569624 -0.23285483 -0.047899913 -0.112340696 0.32640773 -0.12108032
0.063178286 0.09743061 0.15176286 0.07797245 0.09512487 -0.05489595 0.155244 -0.23190175
-0.054908525 -0.25934464 0.24421895 -0.18362318 -0.102277815 -0.30629262 0.041128907 0.10006347
0.2693983 -0.25440744 0.16622727 0.018334348 0.0035297475 0.3040992 -0.106718145 0.20672673
0.16130589 0.27008465 -0.23486999 0.03032607 0.22465216 -0.15383868 0.094860986 -0.03625662
-0.1866932 -0.08626159 -0.249265 -0.18407038 0.20002563 -0.11276916 -0.17226325 0.026983682
0.31598347 -0.0745978 0.30882418 -0.08655505 0.21261036 -0.10181137 -0.18529704 0.040103983
-0.006218169 0.1700976 0.26514396 0.22566858 -0.05313563 -0.043020234 0.111152746 -0.3173709
-0.12898535 -0.04854493 0.27987787 0.2817159 -0.15419266 0.25126588 0.170277 -0.07939349
-0.19158527 0.3109388 -0.19202326 -0.2543956 -0.014821156 -0.026227929 0.09359106 0.15328
0.19318567 0.21712935 0.16503091 -0.29910755 0.30703732 -0.22333401 0.111064285 0.13965616
-0.270897 -0.1378608 0.09027243 0.21988483 0.20674774 -0.06954622 0.20343429 0.08487107
0.20511217 -0.286378 -0.12026875 0.30570328 -0.042832486 0.317761 0.0906599 -0.046640202
0.12195452 0.18733925 0.02582648 0.1496198 0.039540447 -0.32067955 -0.09529848 -0.19150332
0.30521002 0.10867307 0.15833198 0.0158757 0.12522827 -0.2132795 -0.20928201 -0.03008042
-0.24746148 0.089790575 0.01528897 0.0988251 0.21120483 0.30946076 0.19798332 -0.06636469
0.05947525 -0.11460425 -0.041407764 -0.14095119 0.12008794 0.31584123 -0.107468955 0.014726933
-0.27914694 -0.29899392 0.10018216 -0.03365328 0.31802 -0.16201293 -0.13927834 -0.20587003
0.04171286 -0.25459617 -0.09220868 -0.20783284 0.01800777 0.32378954 0.30824795 0.0694972
-0.2562511 0.17792644 0.13994618 -0.17839566 -0.21605182 0.21002981 -0.08494783 -0.30751067
-0.17404106 -0.26106608 -0.15717049 -0.12091275 -0.06845131 -0.3251681 -0.22405349 0.12533742

1 f4 [10, 10, 2]
00000000: 85ab e13d 1aa3 c1be 5979 c9bd e783 59bf
00000010: 5060 a53e d6c8 b23e 19e0 3b3f 7935 5fbf
00000020: 1f48 1f3f 6e1a 843e ab9d 6abf a74d 0d3f
00000030: be9b 393f 2879 d13d dd82 2a3f a5df 40bf
00000040: 18ec 29bd 8305 323f 587c 4b3f db5c a83d
00000050: d5bb 2e3e f60f 43bf faf0 bc3d d9e0 85be
00000060: 78ee 5c3f 13a4 2a3e e23c 9f3e c7b7 5cbf
00000070: fdc0 ee3e f18a 753f e5f2 3b3d 4cfd 45bf
00000080: 714c 0d3e e2be 92be eebd 5fbf 8ec4 283f
00000090: 3359 09bf 75d8 68be 5f0e 99be 0618 61bf
000000a0: 32c7 43bf 328b 963e adf5 2dbf 7755 363e
000000b0: 5a24 463f d637 683f 8776 adbe 4b6d 303f
000000c0: 78aa d83e 375f 743d c82a 9cbe a60a 30bf
000000d0: 2065 063f 1d5f b8be 3bb2 b0be 7914 7e3f
000000e0: 296e 57bf 7d04 fdb8 e520 f7be 2621 9a3e
000000f0: a297 0b3f 0de1 dc3e 75e1 733e e895 0cbf
00000100: 9546 0e3e a435 113f a8d2 3abf 51b5 733d
00000110: de82 f53e 0125 733f 277f 71bf 10c0 13bf
00000120: 28b5 a6be 3e19 013f fe1b e1bd 14ab 1b3f
00000130: 2d21 13be ad9b fd3e 838f b53d 42f0 403f
00000140: 6dc5 cbbd 6a3d 523f d100 713f 4def 293f
00000150: 639f 6d3f fdc6 273d 905c 1abf a829 9abe
00000160: 35bd 3fbe 21c7 83be 2ce1 44bf bb41 913e
00000170: 56af b4be a87e bf3e 8112 f63e 79a7 44bd
00000180: 8a62 6cbf 4cec 65bf 1e45 9b3d d84e 073f
00000190: 3746 243f 302e 1abf cb42 15bf 727b 123f
000001a0: 88fa 333f 17cf 3abf 7417 65bf 48da 55bf
000001b0: ab42 43bf d8f4 123f ca77 cc3e 205d 3bbf
000001c0: ab90 34bf 59f8 633f 2fe7 78bf df57 c8be
000001d0: ed06 583d 4450 55bf 56c1 67bf 5ebe 14bf
000001e0: 9bea 613d 83db c3be 27dc 42bf 9a3d 6abf
000001f0: 0982 36bf 169d 413f 76cf 863d caab 18bf
00000200: 66e0 90be 0249 65bf bdbb 1bbe 3aac 563f
00000210: df42 4cbf c2b6 4dbf 8f69 d4be 0d3a 553f
00000220: f556 963e 4313 473f f72e df3e ba1e ed3e
00000230: 08cc 5ebf f96f c7be 1a8a 2d3f 05ac 1bbe
00000240: 5169 aabe 4850 303f 8a14 093e 7b20 fabd
00000250: 0ecb 5abf 53c8 fdbe 1468 ebbe f089 003f
00000260: f56d 00bc e451 7ebf dc9e 45bf 593d d0bc
00000270: 9060 0c3f d3e1 ea3e 71b3 58bf 06b2 623f
00000280: 9751 6cbf c71d 94bd 513c 58bf fa74 71bf
00000290: 5a7b 11bf dee2 5839 41bf fdbd 4bf0 63bf
000002a0: 1a0a 75bf f628 623e 21b4 43bf 4bb6 7d3f
000002b0: 5c1f 2e3f 9eda 4f3f 341a 9fbc ecb6 bd3e
000002c0: e49c 7c3f 2e78 05bf 5242 233f 4c88 41bf
000002d0: 6874 183f dca1 f8be 8933 13bf 9303 463f
000002e0: 0f2f 7f3f b850 1d3f 3786 0bbf cfe8 4ebf
000002f0: 8002 5a3f ffed 693f 618e 53be 6a4f d63e
00000300: 6b0c 963e a131 cbbe 189e 1abf 3437 9a3e
00000310: 8f25 123f c792 80bd 7603 e13e 6704 3f3d
0.11019043 -0.3781975 -0.09837598 -0.8496689 0.32300043 0.3491885 0.7338882 -0.8719097
0.62219423 0.25801414 -0.9164683 0.55196613 0.7250327 0.10228187 0.6660593 -0.75341254
-0.041484922 0.6953966 0.7948661 0.08220836 0.1706384 -0.7619623 0.0922565 -0.26148108
0.86301374 0.16664152 0.31101137 -0.8621792 0.46631613 0.9591513 0.04588594 -0.77339625
0.13798691 -0.28661257 -0.87399185 0.6592492 -0.5365173 -0.22738822 -0.29893777 -0.8792728
-0.7647582 0.29403073 -0.67952996 0.1780604 0.7739922 0.907102 -0.33879492 0.6891677
0.42317557 0.059661116 -0.3050139 -0.6876625 0.52498055 -0.36010066 -0.3451098 0.9924999
-0.84152466 -0.00012064816 -0.48267284 0.30103415 0.5452825 0.4314045 0.23816474 -0.5491624
0.13894112 0.56722474 -0.72977686 0.05949909 0.47951406 0.9497834 -0.94334644 -0.5771494
-0.32560086 0.5042914 -0.10991667 0.6080792 -0.14368124 0.49532834 0.08865263 0.75366604
-0.09949765 0.8212496 0.9414187 0.6638077 0.9282133 0.040961254 -0.6029749 -0.30109906
-0.1872452 -0.2573786 -0.76906085 0.2837046 -0.3529002 0.3740132 0.48060992 -0.048011277
-0.9233786 -0.89813685 0.075815424 0.5285468 0.6416964 -0.60226727 -0.58305043 0.5721961
0.70304155 -0.72972244 -0.8948891 -0.83536196 -0.762736 0.5740485 0.39935142 -0.7318897
-0.70533246 0.89050823 -0.9722776 -0.3912954 0.05274098 -0.833256 -0.9052938 -0.5810298
0.055155378 -0.38253412 -0.76117176 -0.91500247 -0.7129217 0.7563032 0.06582539 -0.5963713
-0.28296202 -0.89564526 -0.15208335 0.83856547 -0.7978954 -0.8035699 -0.41486785 0.83291703
0.29363218 0.77763766 0.4359052 0.46312505 -0.87030077 -0.38952616 0.6778885 -0.15202339
-0.33283475 0.688725 0.13386741 -0.122132264 -0.85466087 -0.49566898 -0.45977843 0.50210476
-0.007838716 -0.99343705 -0.77195525 -0.025419878 0.5483484 0.45875415 -0.84648806 0.8855289
-0.92311996 -0.07232242 -0.84467036 -0.9431912 -0.56828845 0.0002068388 -0.123899944 -0.8903853
-0.9571854 0.22085938 -0.7644673 0.9910628 0.680166 0.8119296 -0.019421674 0.3705362
0.98676896 -0.52136505 0.6377307 -0.755986 0.5955262 -0.4856099 -0.5750051 0.77349204
0.9968118 0.6145129 -0.5450167 -0.8082399 0.85160065 0.9137878 -0.20659782 0.41857463
0.2930635 -0.396863 -0.6039748 0.30120242 0.5708856 -0.062779956 0.43947953 0.046635058

2 f4 [10, 10, 2]
00000000: 1cef 203d 4ca2 7c3f 8721 093d 97f9 b83e
00000010: 14b0 b93e 70ef 483f c16c 683f 61ae aa3e
00000020: ccc5 0d3e d18c 343e 47cf 1ebf 9c79 713f
00000030: 6f9e 393f 41c6 60bf 1d85 50bf e987 12bf
00000040: fd78 423f aea1 47bf 1847 4ebf 9141 d5be
00000050: 4a0b 133f e1eb 063d ec43 053f 0ce1 493f
00000060: 3315 1f3f f7c9 7ebf b015 943c 08e5 cd3e
00000070: 78ac 463f 9d50 b63d 58b7 453f ac05 ebbe
00000080: cb13 06bf 85ae 36bf 09d2 e6be 012f 39bf
00000090: 082e 37be 5c6c b23e 28fe 793f 540d f73e
000000a0: 8027 14bf 0e80 72bf 9c81 6e3e 3290 2a3e
000000b0: 8d9a 63be 2579 8b3d f90b d2bd e2e1 4cbf
000000c0: fdf1 6abe 668a 63bf 0b25 c4be 80d1 883e
000000d0: 21a6 973e 4a28 b5be fc00 5a3f c219 b63d
000000e0: e1d4 12bf f112 d3bd b0b1 7f3f 1b3a 77be
000000f0: 931b 913e 730e 2a3f 8398 74bf a78c 72bf
00000100: 576d e4be 5fff c5bd 495e 433f be39 d6be
00000110: b9a5 313f d4d6 3b3f 71d2 653f 95db d13e
00000120: 5c24 f13e 958a d6bc 374d 45bf 6a77 55bf
00000130: 7565 89be 444b 5b3f 5ebd 30bf 8669 0f3f
00000140: 6262 61bf 6fcd 233d 91a1 5d3f 4cad 1d3f
00000150: 1978 ea3e 8920 5f3f a29c a2be ff45 db3e
00000160: de6c 9d3e 5415 fabe 501a a6be 33c6 a73e
00000170: d7ff c13e 1f3b 743e c807 513f 6e91 69be
00000180: a57f cb3e 3323 613e 8941 73bf 42c0 0e3e
00000190: 82dd 12be ff68 99be b13d 153f 0de4 583f
000001a0: f72a 333f c204 63be c2d4 72bf 1ed2 9c3e
000001b0: e3d5 68be 381d 643f 74e0 26bf 2991 ee3e
000001c0: 0a12 e2be 75e6 4bbf 3dc7 1bbf 60bf 78bf
000001d0: ffa1 54bf c81d 3fbe d381 173e 7acb d3be
000001e0: 9db4 9ebe 9571 e9be e321 b93e 60ae 0e3b
000001f0: bad9 77bf 12ae 3c3f ec72 243f 2547 6c3d
00000200: 2cec 31bf 5e38 24be d098 3abf ecf6 30bf
00000210: a9c7 b53d f6f7 273f 35b8 e7bd 99cd 72bf
00000220: 722e ae3d 27e1 24bf 6da2 0f3f 01ff 663e
00000230: 3767 343f 3f01 12be c8f8 733e 0f99 073f
00000240: d994 313f f7fb 4f3f fc45 ab3e 243f b73e
00000250: 931b 5f3f 62c4 663e 360f 3fbd 874b 393f
00000260: b09c 15bf ddd9 74bf 4d8d 46bf c4a8 1dbe
00000270: 38bd 2bbf b483 673f 4844 2abf 297e f43e
00000280: 2028 36bf 12d4 1d3f a501 1f3e 5ca8 39bf
00000290: 4098 83be aea0 e3bb 7cf8 86be fdbe 08bf
000002a0: c700 233f 14c7 453d d7ce 48bf 7cb0 c33e
000002b0: 94eb 953e 7b4b e4be ff60 5b3f 8f9e 653f
000002c0: a7c2 1b3f eb65 66bf ae2e d4be d952 463f
000002d0: b8f5 78be 253a 823e 0be1 8b3e 07d2 51bf
000002e0: 37b8 bf3e 3286 a5bc d0fb 923e 46a6 56bf
000002f0: aa22 b73e 1404 423f 228c 24bf 817f 4bbf
00000300: 452d 723f 0589 1e3e 358b 113f 0e78 bfbc
00000310: ab7e 32bf 9f62 863e 0ec5 0abf a53e 30bf
0.039290532 0.98685145 0.03347924 0.36127922 0.3626715 0.7849035 0.90790945 0.33336166
0.13844985 0.17631842 -0.6203503 0.94326186 0.72507375 -0.8780251 -0.81453115 -0.5723863
0.75965863 -0.7798108 -0.8057723 -0.41651586 0.574391 0.032939795 0.52056766 0.7885902
0.6214172 -0.99526924 0.018076748 0.402138 0.77606916 0.089020945 0.77232885 -0.45902765
-0.5237395 -0.71360046 -0.4508212 -0.7233735 -0.17888653 0.34848297 0.97653437 0.48252356
-0.5787277 -0.94726646 0.2329163 0.16656569 -0.22226925 0.06810216 -0.1025619 -0.8003217
-0.22943874 -0.88883054 -0.38309512 0.26722336 0.29618934 -0.353823 0.8515775 0.08891632
-0.5735608 -0.10306347 0.99880505 -0.24143259 0.2834135 0.664283 -0.95545214 -0.9474587
-0.4461467 -0.09667849 0.7631574 -0.4184093 0.693935 0.73374677 0.89774233 0.4098784
0.47098053 -0.026189128 -0.77070946 -0.83385336 -0.26835218 0.8566172 -0.6903895 0.5602039
-0.88040745 0.03999084 0.86574656 0.61592555 0.45794752 0.8715902 -0.31760126 0.4282684
0.30747122 -0.48844397 -0.3244195 0.32768402 0.37890503 0.23850678 0.816525 -0.22809383
0.39745823 0.21986084 -0.95021874 0.13940528 -0.14342311 -0.29962918 0.5829726 0.8472298
0.69987434 -0.22169784 -0.9485589 0.30629057 -0.22737841 0.89107084 -0.6518624 0.46595123
-0.44154388 -0.79648525 -0.6085089 -0.97167015 -0.83059686 -0.18663704 0.14795618 -0.41366178
-0.30997172 -0.4559447 0.36158666 0.0021771416 -0.968166 0.7370311 0.64237857 0.057685036
-0.69500995 -0.16037127 -0.72889423 -0.6912677 0.08875973 0.65612733 -0.113144316 -0.9484497
0.085049525 -0.64406055 0.5610722 0.22558214 0.70469993 -0.14258288 0.23825371 0.52967924
0.6936775 0.8124384 0.3345183 0.3579036 0.8715145 0.22535852 -0.046645366 0.7238087
-0.5844221 -0.95644933 -0.7755936 -0.1539641 -0.670856 0.9043534 -0.6651044 0.47752503
-0.71154976 0.6165172 0.15527971 -0.7252252 -0.25702095 -0.0069466447 -0.26361454 -0.53416425
0.6367306 0.04828556 -0.7844061 0.38220584 0.29281294 -0.44588837 0.8569488 0.89695066
0.6084389 -0.89999264 -0.41441864 0.77470165 -0.24312484 0.25434986 0.27320132 -0.819611
0.37445232 -0.02020559 0.28707743 -0.83847463 0.35768634 0.7578747 -0.64276326 -0.7949143
0.94600326 0.15481956 0.5685304 -0.023372676 -0.6972453 0.26247117 -0.5420693 -0.6884559

3 f4 [10, 10, 2]
00000000: 4a22 34bf 7dc7 5b3f caa4 8b3b 2f44 87be
00000010: 8c5c 483f 9f7b a73e 70d8 14bf f35b 283e
00000020: d22d 66be 7129 50be 025b 333f 3652 f13d
00000030: 8ca5 fabe 2bf6 88be b015 14bf bf2e 03bc
00000040: 33cf 8c3d 030a 48bf dc43 3d3f f2de a4be
00000050: 824b 1f3f 63f3 6b3e 66aa 63bf 0860 743f
00000060: d708 583e 1de4 5e3f a2f4 12bf 1bcf 033e
00000070: 3789 e73e e94a d43d 1999 003e 37b7 223f
00000080: 9975 2e3f 1680 63bf 3280 57bf 59ed 7b3f
00000090: 9b69 2d3f b16f 203f ddd9 643e 83d6 4bbf
000000a0: abc8 4ebf f1d7 143f a98e 79bf bc2c 51bd
000000b0: 0b48 763c 9cb9 2f3f b374 613e bd46 7ebf
000000c0: f586 323f 4608 d23d 1863 6a3f a301 80bf
000000d0: bff3 d2be 3d5f 4ebe 9e78 803e 29d9 f53e
000000e0: 71e6 ae3e 6e0d 13be d8cf 9e3e 1805 43bf
000000f0: 31a2 6dbf 1f8a be3e 6238 333f 30ae 8d3d
00000100: 0158 223f 3604 a23d 6f7b 793f f902 92be
00000110: 0896 453e 10f3 6d3f e705 b0be 9c63 babe
00000120: a387 373f 5ac5 5ebf 7794 c9be 4856 5ebf
00000130: e9dc e83e 028a 4ebf cc8a 71bf f65b 263f
00000140: 28b0 d03d 86e6 37bf 35a8 59bf a24c 0c3e
00000150: 19ac 2ebf 610f 65bf d9af a6be 1616 e0be
00000160: 668d acbe a85b 43be 126e 5d3f 4418 8dbe
00000170: 8048 e5be 8ce1 c8be c2f0 a23e 3693 d13e
00000180: f1ad ab3e 375c 6b3f 8915 83be 05fa 07bf
00000190: 0ce7 26bf 303c cabd f8a9 4ebf 5640 42bf
000001a0: 0d29 7e3f b3c9 6a3f 7835 80bd b382 1dbf
000001b0: 8e20 26bd 69f0 4d3f c4fb 3e3f a419 74be
000001c0: f04f bd3e 9636 dd3e 8948 6abf fb8e ac3e
000001d0: 4d85 e73e 2f3a 723f 5180 b33e 6823 0fbf
000001e0: bc06 b73e 2894 063f 979b ac3e a34b 083d
000001f0: e7d5 edbd 248d 403e 914e 233f 0a2f babe
00000200: d00a 4dbf cdb9 79be f2c7 5f3f 673f 233f
00000210: b334 90be a3b6 673f ffcf 203f c356 1cbf
00000220: 5fc5 4a3f bcb9 303f acc9 033f d1b0 203f
00000230: 0d04 833e 3aa6 233f 8853 30be 1a5f 8fbe
00000240: c61e e5be e54c f3bd efdc 303f e49c 3abf
00000250: 2ef0 413e c3ab 7fbf 20de 8f3e b196 bbbe
00000260: 12d8 033f f7b1 3a3d 55cb b1bc 3158 1c3f
00000270: 3e68 ccbe ed69 733e f92d d53e 2df4 313f
00000280: 65da a4be ad76 8b3e c200 8bbe c7b4 9b3d
00000290: 6ee9 053f cc73 03bf 3cd0 56bf bfae 703e
000002a0: 4cf9 64be 97f3 26bf ad4f edbd 6219 e4bd
000002b0: 39dd 093f 837a 39be 2db0 7cbf 5b6e 47bf
000002c0: b0f7 9e3e dbdd 52bf 54bf 79bf f120 ccbd
000002d0: 3dd0 963d e4e3 db3e 7398 7e3e e9ef bfbe
000002e0: bbbc 0abf f3f7 0ebe 6703 ccbe fa7f 41bf
000002f0: 4a69 313f c662 0abf d6b1 b5be 1ef6 b4be
00000300: 312e 133f 6e92 c03e ece1 6e3f 3027 13bf
00000310: 2936 6abf 7aff b93e 3447 95bc 9fa4 463f
-0.7036482 0.8585127 0.0042615877 -0.26419207 0.78266215 0.32711503 -0.5814276 0.16441326
-0.22478417 -0.20328309 0.7006074 0.117832586 -0.48954427 -0.2675031 -0.5784559 -0.008006751
0.068754576 -0.78140277 0.7393167 -0.32201344 0.6222459 0.23042063 -0.8893188 0.9545903
0.21097122 0.87066823 -0.5740453 0.12871973 0.45221874 0.103658505 0.12558402 0.63560814
0.6814819 -0.8886732 -0.84179986 0.9840904 0.67739266 0.6267043 0.22348733 -0.79624194
-0.80774945 0.58142 -0.9748331 -0.051068053 0.015031825 0.6864259 0.22017173 -0.9932669
0.6973718 0.10255484 0.91557455 -1.00005 -0.4120159 -0.20153518 0.25092024 0.48017243
0.34160188 -0.14360592 0.31017947 -0.7617965 -0.9282561 0.37214753 0.7000791 0.06917989
0.63415533 0.079109594 0.9745397 -0.28517893 0.19295514 0.9294901 -0.34379503 -0.3640412
0.7169134 -0.87019885 -0.39371082 -0.86850405 0.4548104 -0.80679333 -0.9435241 0.6498407
0.10189849 -0.71836126 -0.8502229 0.13701108 -0.6823135 -0.8947659 -0.32556036 -0.4376685
-0.33701628 -0.19077933 0.8649608 -0.27557576 -0.44781876 -0.3923458 0.3182431 0.40932626
0.33531144 0.91937584 -0.25602368 -0.53115875 -0.651963 -0.09874761 -0.807281 -0.7587942
0.9928139 0.9171402 -0.06260198 -0.61527556 -0.04055839 0.8044496 0.74602914 -0.23837906
0.3697505 0.43205708 -0.9151693 0.33702835 0.45218888 0.9462003 0.35058835 -0.559134
0.35747325 0.5256982 0.33712456 0.033275258 -0.11613064 0.18803841 0.6379176 -0.36364013
-0.80094624 -0.24387284 0.8741447 0.6376862 -0.28165206 0.90513057 0.62817377 -0.6106989
0.79207414 0.6903341 0.514796 0.627698 0.25589028 0.63925517 -0.17219365 -0.28002244
-0.4475004 -0.11879901 0.6908712 -0.72895646 0.18939278 -0.9987146 0.28099155 -0.36638406
0.5150157 0.045579877 -0.021703402 0.6107207 -0.3992328 0.23770876 0.41636637 0.6951321
-0.32197872 0.2723898 -0.27149016 0.0760284 0.5230931 -0.51348567 -0.8391149 0.2350416
-0.22360724 -0.6521544 -0.115874626 -0.11137654 0.53853184 -0.18113141 -0.9870632 -0.77902764
0.31048346 -0.82369775 -0.9755757 -0.099672206 0.07363937 0.42947304 0.24862842 -0.37487724
-0.5419423 -0.13961773 -0.39846346 -0.755859 0.69301283 -0.54056966 -0.3548724 -0.35344023
0.5749236 0.37611717 0.9331348 -0.5748167 -0.9148889 0.36327726 -0.018222429 0.7759494

4 f4 [10, 10, 2]
00000000: 598d 0f3f f839 363f 6b73 f4be aa9c 593f
00000010: ba5f 10bf 1568 36bf 4373 cfbe 7004 e4be
00000020: c25e 9ebe 6910 393f babc f0be 5eff 1d3f
00000030: 2fd7 d5be 10e9 35bf 34c4 d3be cb98 8cbd
00000040: 7a0a 1b3f 1140 5f3f 6361 ee3e d32b 6e3f
00000050: 9f3a 9f3e 4ebf 18be ae2b 3d3f 563b 413f
00000060: fa1f a4be 5b7b 26be 5cee debe e174 0ebf
00000070: 89fe 7b3f 1c20 29bf aa75 8bbe f813 5c3f
00000080: eaf5 4dbf 05dd ec3e ca2e b83e 0399 243f
00000090: 171e 513f 6186 03bf 07ea 2bbf 681e 683f
000000a0: 20f6 45bf c76d 66bf 3a5f 96be 20d2 203f
000000b0: 2ec3 dabe 0af1 ecbe b4c5 eb3e 3a08 623f
000000c0: 6c11 1abf 4dcd 2abf 07da 083f 332a 0d3e
000000d0: 0430 b0bc 843a 3e3f 64cd 313f 5cbb 093f
000000e0: 0c5d 423f d15e 37bf 47d2 15bf f144 b4be
000000f0: d552 fbbe 5295 a33e feaf 84be 371e 323d
00000100: 1e6b 30bf 0416 39bf 632c dd3e b9cc d23e
00000110: 7d98 3b3f 2e61 71bf afb9 383f 0ca3 24bf
00000120: 0844 2d3f 866a acbe f311 db3d 6b29 50be
00000130: cf13 5a3d a8d2 1dbf a83e ef3e 6b3a 2fbe
00000140: a9a1 0cbe 07bf 703e a57f 56bf a63b 4bbd
00000150: 9750 4b3d 4cb5 40bf b81b d6bd 479c 58bd
00000160: 6733 873e f268 22bf b46e a93e 39d1 d1be
00000170: f377 6ebf 2c55 123e c6ef 74bf 5d0a 0bbf
00000180: 2954 1d3f 356d 323f 03ad 76bf 021e 1dbe
00000190: e499 54bf 7f00 85bd 288f 503f b404 08bd
000001a0: 8da2 433f 3b65 5abf 2634 d0be 5f73 65be
000001b0: 3ccb a93e 1335 07bf 5570 253f 3105 3ebf
000001c0: 4413 353f 61c7 03be 5da4 ee3e ab8b e63e
000001d0: d0fc 01be 14d5 223c 226e 973c 0bdd 08be
000001e0: 281d 293f f6f9 58bf 9a2e a53e 6ade fc3e
000001f0: d79f 3fbf 57d4 0b3f eb7a 20bf 188a 9c3e
00000200: 3b12 34bf 8f74 cabe 304f 6a3e 9e5e 5fbe
00000210: af2a 6a3f 9714 72be 3ff0 9e3e aa91 6cbf
00000220: dd3b fdbe 7f52 58bf d417 513f 5a6e 553f
00000230: 3c84 123f 87f8 debe f74d 4abf 51dc 6abe
00000240: 7e48 9abe 09a6 883e 773b 5dbe bac3 5dbe
00000250: 7a19 0b3f 3531 d7be 6467 8f3e c0cd 35bf
00000260: 48f7 84be b62f fdbd 9453 533f a2db a53c
00000270: 5a15 703f 8f25 743d 41e9 1f3f 7380 4abf
00000280: c9e4 fd3e 7d40 4ebe 3a75 143f e41d 513f
00000290: c4f9 f23e 9e8c ae3e 7b0a e33e a7c1 183f
000002a0: 5beb d8be db3f 5cbf 656a 78bf c4a6 b4be
000002b0: cfaa d3be 0a74 623e 7344 e3be c60b 1abf
000002c0: 7bcb 0dbf 9c3a 0d3e c91f 61bf aac5 a13e
000002d0: a0c2 363d 61fe 25bd 91f5 d63d 56d6 a33e
000002e0: 1f36 51be 665d 903e 4a71 45bf 8f71 1a3f
000002f0: d9d6 603f eff8 953e 109f 29be a80a b0be
00000300: c057 6c3f 1116 debd 3d49 963e 4280 be3e
00000310: 1bb4 2c3f 60c9 b33e b279 d83e 089d cabd
0.56075054 0.71182203 -0.47744307 0.85004675 -0.5639607 -0.71252567 -0.40517625 -0.44534636
-0.3093167 0.72290665 -0.47018987 0.61717784 -0.41765735 -0.7105875 -0.4136063 -0.068650804
0.6056286 0.8720713 0.46558675 0.9303562 0.31099412 -0.14916727 0.73894775 0.75481164
-0.32055646 -0.16257994 -0.4354123 -0.55647093 0.98435265 -0.6606462 -0.27238208 0.8596797
-0.8045336 0.46262375 0.35973197 0.6429598 0.8168654 -0.5137692 -0.6715397 0.90671396
-0.7732868 -0.90011257 -0.29369527 0.62820625 -0.42727035 -0.46277648 0.46049273 0.882938
-0.60182834 -0.66719514 0.53457683 0.13785629 -0.02150727 0.7430804 0.69454026 0.5380151
0.7592323 -0.71629053 -0.5852398 -0.35208848 -0.49086633 0.3194986 -0.2591552 0.043485846
-0.6891345 -0.7229922 0.43197927 0.41171816 0.73279554 -0.9428891 0.7215833 -0.6431129
0.6768193 -0.3367502 0.10696783 -0.203283 0.053241547 -0.6164956 0.4672749 -0.17112128
-0.13733543 0.23510371 -0.8378852 -0.049617432 0.049637403 -0.7527664 -0.10454506 -0.052883413
0.26406404 -0.63441384 0.33092272 -0.40979937 -0.9315178 0.14290303 -0.95678365 -0.5431269
0.61456543 0.69697887 -0.96357745 -0.15343478 -0.8304732 -0.06494235 0.8146844 -0.03320761
0.7641991 -0.85310715 -0.40664786 -0.22407292 0.33162868 -0.5281536 0.6462453 -0.7422667
0.7073252 -0.12869026 0.46609774 0.45028433 -0.12694097 0.009938497 0.018485133 -0.13365571
0.66060114 -0.8475641 0.32262117 0.49388438 -0.7485327 0.5462088 -0.6268756 0.30574107
-0.7034032 -0.39542052 0.2288177 -0.21813437 0.9147138 -0.23640667 0.31042668 -0.92409766
-0.49459735 -0.8450088 0.81676984 0.8337151 0.57233024 -0.43548986 -0.79025215 -0.22935607
-0.30133432 0.26689175 -0.21604715 -0.21656695 0.5433575 -0.4202973 0.28008568 -0.71017075
-0.2596991 -0.12362616 0.82549405 0.02024633 0.9378258 0.05960613 0.6246529 -0.7910225
0.49588612 -0.20141788 0.57991374 0.81686234 0.4745618 0.34091657 0.44343933 0.5967049
-0.42367062 -0.86034936 -0.97037345 -0.35283482 -0.41341254 0.22114578 -0.4438816 -0.60174215
-0.5538861 0.13791889 -0.87939125 0.31596118 0.044619203 -0.040525798 0.10496057 0.31999463
-0.20430802 0.28196257 -0.7712599 0.60329527 0.8782783 0.29291484 -0.16564584 -0.3438313
0.92321396 -0.108440526 0.2935275 0.37207228 0.6746232 0.35114574 0.42280346 -0.098932326

0 f4 [10, 110, 2]
00000000: 8748 5c3c 76de 2eb9 e672 8f3d 0c64 e73c
00000010: c851 083d 3814 80bd 828a 603d ffec 7fbd
00000020: 8e09 86bc 1f46 b13d c017 4a3d 8ab9 8bbd
00000030: 26b1 b83d 314e b23d 0945 2e3c bb38 923d
00000040: d373 ab3d d1ed ad3d a045 1cbd cf1d 9e3b
00000050: 9da4 083c a0dd 8dbd 3b47 6dbd 67da 76bc
00000060: 34b3 a2bd 8a65 9d3d 79ce d93c a8a0 96b7
00000070: e402 753d 69d7 443d 8d6f 9bbd 3a20 a23d
00000080: f206 8c3d 7e26 67bd caa7 2a3d d85c 67bd
00000090: 52fe b4bd cc4e 96bd 7095 d03b 0706 723d
000000a0: d24f 23bc 611d a33c 5f53 793d 4c31 3d3d
000000b0: b563 5b3c 4b52 8b3d 9052 31bc afb7 7e3d
000000c0: 8dff 703d 2fa1 bc3c a922 553d ac9e 4c3d
000000d0: aeb4 1fbd 7e3a fa3c db8c 523d e714 6fbd
000000e0: 5dc7 9a3c 8c96 2fbc 788d f2bc cf89 8ebd
000000f0: b4a9 2f3d f06f 9e3d 1c24 b23d 982a 303d
00000100: 7bc0 35bd b31f 61bd 0b68 253d 6747 86bd
00000110: e8ff 4bbd 9a46 9d3d 2036 443c 977e bf3c
00000120: 902c bbbd 11e1 62bd 2b68 183d 6bf0 7bbd
00000130: 5417 11bd 5329 a8bd 5f3b 723d 366d a3bd
00000140: d066 1fbd 9236 9bbd f71e a5bd 6dde 30bd
00000150: 2743 ad3c 50b1 49bd 1268 78bd 2e1e 5fbd
00000160: d64c 99bd 083a 30bd a8ba 1fbc bb02 df3b
00000170: 121c 9ebc 1836 583d 8c28 a139 af43 383c
00000180: 63b3 81bc f02e 6d3d 2576 9abc 54c7 8b3d
00000190: 3eb2 83bd 3c78 313d a292 9c3c 1c69 cdbc
000001a0: ecb4 943d 8a91 5fbc 365c a3bd 1d29 883d
000001b0: 943b 80bd 2fd8 503d 3519 c2bc 97c8 b53d
000001c0: 8806 013d 76fb 8ebd ecc1 48bd d9cd 913c
000001d0: 2439 183d 4b89 b1bd d5bb 1cbd ba7a 07bd
000001e0: 833e 7dbd 30ff 07bd 9df1 2abd 933f 23bd
000001f0: 19be 213d bcb2 973d de20 9fbd a26b 7b3d
00000200: 161d 983c cf1c 9ebc d280 193d db39 30bb
00000210: 10af 3f3b 51da 7cbd b081 dcbc 62ee 333b
00000220: 2c0e a43d a484 a3bd bdf7 3bbc 401c 853d
00000230: 3ed6 96bd 955f 5d3d 2866 453d 839f 57bd
00000240: 4af1 073d eba4 67bd 4f31 08bd 0ec1 97bd
00000250: 62d6 21bd 8f8b 083d cd04 41bd ba59 173d
00000260: 0f6a 6cbd bf47 41bd 800d 4ebd 8786 9e3d
00000270: 84b7 9ebd 29ca 21bd e2c4 303d 4801 8f3d
00000280: dec2 7fbd 7e86 b6bc 5574 2dbd a0b6 50bd
00000290: 15f9 2d3c 2ad6 b33d 786e 7ebc f173 673c
000002a0: 6131 993d 4f64 823d 6944 21bd 23ff 993d
000002b0: a00c 9d3d 57eb 893d 5330 803d 9461 9dbd
000002c0: 542f 43bc 254a 48bd 8626 e6bc e3f2 97bd
000002d0: dceb 263d 3208 693c 45a9 81bc 847b b23d
000002e0: 7bcf 3e3c ab3a 42bd 63cf 873d d3fe a23d
000002f0: 58d4 d1bb 54f2 dfbc c4ff 13bd fea2 473c
00000300: f195 013d 50ac 85bd 08ed 26bd 408d 5fbc
00000310: 2edf a73d cd47 303b 6a66 853c 7cec aa3d
00000320: 03f9 2fbd c443 93bc 9805 513c 05fd 943d
00000330: 3f6e b53c 7152 843d eda7 08bd faa2 dcbc
00000340: a9ec 52bd 04cc 9fbd f859 ae3d c2ed 9bbc
00000350: 1906 34bb 62d9 a9bd 3a0f adbd 4e03 de3c
00000360: 92ee 7c3d 9046 c7bc 15d7 463c 639a 14bc
00000370: 2441 713d 0b04 c1bc 9364 82bd d142 dd3c
00000380: c551 5c3d 64b7 f7bc 0d3f 483d 6449 e93c
00000390: fda3 9a3d dbda 863d 37df c4bc 99d8 a53d
000003a0: 652f a53d 9a36 a93c 4e15 20bc cede 3f3c
000003b0: f50b 433c f758 44bd f5a1 ddbc 2696 263d
000003c0: 8ede 72bd 97be 0abd b71b efba 349e e13b
000003d0: 00e0 bc3d 1f1a 593d e235 323d 88a3 e83c
000003e0: 9aa0 39bd b7e5 39bd 9915 78bd 12ed 88bd
000003f0: 5f78 a9bd e12f 8abd 2655 d9bb b2ae ddbc
0.013445026 -0.00016676806 0.07004337 0.028245948 0.033281118 -0.062538564 0.05481959 -0.062481876
-0.016361978 0.08655953 0.049339056 -0.06822498 0.090181634 0.0870632 0.010636576 0.07139727
0.08371701 0.084926255 -0.038152337 0.004825331 0.008340028 -0.06927037 -0.05792926 -0.01506672
-0.079443365 0.07685383 0.026587712 -1.7956205e-05 0.05981721 0.048056994 -0.07589636 0.07916303
0.06837262 -0.056433193 0.041663922 -0.056485027 -0.0883757 -0.07339248 0.0063654706 0.05908778
-0.009967761 0.01991147 0.060870524 0.04618959 0.013390471 0.068028055 -0.010822907 0.062186893
0.058837462 0.023026077 0.052035008 0.04995601 -0.03899067 0.03054547 0.05140386 -0.058369543
0.018893892 -0.0107170455 -0.029608473 -0.06959879 0.04288645 0.07736194 0.086982936 0.04300937
-0.044373017 -0.05496187 0.040382426 -0.06556588 -0.049804598 0.07679482 0.011975795 0.023375792
-0.09139359 -0.05539042 0.037208717 -0.061508577 -0.035422638 -0.08211007 0.059138652 -0.07979815
-0.03891641 -0.07578768 -0.08062547 -0.04318087 0.021150185 -0.049241364 -0.060646124 -0.05447214
-0.074853584 -0.043024093 -0.009749092 0.0068057454 -0.019300494 0.052785963 0.00030738523 0.011246606
-0.015832609 0.05790609 -0.018855164 0.06825128 -0.064304814 0.043327555 0.019112889 -0.025074534
0.072610706 -0.013645539 -0.07976572 0.06648467 -0.062613636 0.05098742 -0.02369366 0.0887615
0.03150037 -0.06981556 -0.049013063 0.017798351 0.03716387 -0.08668765 -0.038265068 -0.033076026
-0.061827194 -0.03320235 -0.041734327 -0.03985555 0.039487932 0.07407138 -0.07769941 0.061381944
0.018568557 -0.019300846 0.03747637 -0.0026889953 0.0029248632 -0.06173164 -0.026917309 0.002745532
0.080105156 -0.079842836 -0.01147264 0.06499529 -0.07365082 0.054046232 0.048193127 -0.052642357
0.033189096 -0.056553762 -0.03325015 -0.07409869 -0.039511092 0.03333622 -0.04712372 0.036950804
-0.057718333 -0.047187563 -0.050305843 0.07740503 -0.077498466 -0.039499436 0.043156512 0.06982666
-0.0624417 -0.022280928 -0.04234727 -0.050955415 0.010618468 0.08781083 -0.0155292675 0.014126764
0.074801214 0.063667886 -0.03937188 0.075193666 0.07668424 0.06734341 0.06259217 -0.07684627
-0.011913139 -0.048898835 -0.028094541 -0.07419374 0.040752277 0.014223145 -0.015827784 0.08714965
0.011646147 -0.04741923 0.06631353 0.0795876 -0.006403487 -0.02733723 -0.03613259 0.012184856
0.031637136 -0.065270066 -0.040753394 -0.0136445165 0.08196865 0.0026898265 0.016284186 0.08345887
-0.042962085 -0.01797665 0.012757681 0.07274822 0.022147296 0.06461037 -0.03336327 -0.026933182
-0.051495228 -0.07802585 0.08513254 -0.01903427 -0.0027469455 -0.082934156 -0.0845017 0.027101185
0.061750956 -0.024325639 0.0121362405 -0.009070012 0.058900014 -0.023561498 -0.06366839 0.0270094
0.05378892 -0.030238815 0.048888255 0.028477378 0.075508095 0.06584712 -0.024032218 0.08097953
0.080656804 0.020655919 -0.009770704 0.011710836 0.011904706 -0.047936406 -0.027054766 0.040670536
-0.059294276 -0.033873167 -0.0018242513 0.0068853144 0.09222412 0.053003427 0.043508418 0.02839829
-0.045319177 -0.04538509 -0.060567472 -0.066858426 -0.08274912 -0.067474134 -0.006632465 -0.02706084

1 f4 [10, 250, 2]
00000000: f528 14bc fa72 82bb 483e 733c 4b13 fabc
00000010: b70e c4bc 75e5 b93c 4700 613c b088 683c
00000020: 2c4a b2bb 890c f13c d25d de3c b61f 033d
00000030: db75 6c3b a23d 553c cf63 183d 8e14 1d3d
00000040: 58dd ab3c 0f65 debc d6a7 b93c f1c5 b5bc
00000050: 515a 20bd bb4c 02bd 1621 153d 7d16 0b3d
00000060: fe8d 4ebc 9a58 8c3a e4de a5bc 4eb5 94b8
00000070: 1269 92bc d97d 3b3c 03a4 5b3a f99a 093d
00000080: 519d 093d d501 0c3d 599b 3dbc b6e3 14bd
00000090: 8c3d 373b 6b5e 5bbc bf1b 803c fa44 1d3c
000000a0: 71f9 003d ab66 cc3b ccb0 b83c 0054 ecbc
000000b0: c6c4 853a 916b 21bc f3a2 8fbc f730 753c
000000c0: 5d4f 53bb 3737 4abc e09e 1e3d cf9a da3c
000000d0: 269f bdbc 0dbc 22bc 8472 d1bb 7a46 d23c
000000e0: 87b1 0c3c e894 ac3c 5dff c13c 125a e43c
000000f0: 1a40 a23c 05d5 fe3c 47c9 99bc e944 a03c
00000100: 2f4e 123d 9fc6 b1bc 9fd6 3f3c 50b6 45ba
00000110: 0d20 053d 1427 5d3c 43a2 8d3c 7139 8ebc
00000120: cb6c dd3c 8bcd 49bc 3a2a 083d a107 fdba
00000130: c5cd bebb 7f76 bcbc cb5e 9cbb 651e 7a3c
00000140: 7949 80bc 85e1 abbc 364e 7a3c 67fd 833c
00000150: 13d8 18bd 6b96 693c a6a4 15bc 8a13 2f3c
00000160: b2e1 e2bc 7292 a7bc 853d 18bd 898c be3c
00000170: a250 adbb 2d55 11bc b0cc 0cbc e033 043c
00000180: 30b5 7c3c 545d ae3c 417f eabb cfae febb
00000190: 5f55 3f3b 4446 05bc 4098 ba3c 494a d8bc
000001a0: 4f7f 843c c3e8 1bbc a39a f53c 692c c4bc
000001b0: 4541 193d 59b5 95bc 55be 9cbc 0ddd a53b
000001c0: 42b9 9d3c 97c3 5f3b 4d13 983c b0ee 653c
000001d0: db20 e23a 701c a7bc ca1a 07bd ef25 023d
000001e0: 1445 7ebc 9173 c8bc edc8 ef3b 634d b83c
000001f0: 29e5 1ebd f0a6 b73c a2dd 243c 4d03 e93b
00000200: b70a b03c 31e1 27bd 2bad b33b c55d 87bb
00000210: faf2 c63c 9089 7e3c 028a 7bbb 2eee 973c
00000220: 080b b8bb 27c9 903c 9641 1e3d 8fcf 30bc
00000230: 80b9 ce3b f71b 0fbd b4f9 0c3a 6578 e33c
00000240: 6f3b 613b 2d03 f2bc a7f4 543c eda6 843c
00000250: 8d87 b8bc b084 3c3c e650 893c 6bef d5bc
00000260: 525e fcbc b131 3bbc 000a 573c 395c 22bb
00000270: 0757 ed3c a909 03bd acf1 82bc 7bc2 183c
00000280: 85a7 81b9 7081 813c af4f 193d 6384 1e3d
00000290: 68d7 173d 9b89 29bd 4a81 88bc 6c9b fabc
000002a0: d4d6 d13c 0415 173d 0241 d5bc 33de 183d
000002b0: b073 7ebb b38e f6bb 8bf0 80bb 98e7 2a3d
000002c0: af6b 123d 4579 823c 42be b5bc e77a 5e3c
000002d0: 883b cdbb 8b26 d4bc 8cb1 11bd 9b0f 47bc
000002e0: c791 863c 0407 843c ece4 c5bc 67ad ff3c
000002f0: 3a00 53bc dc73 38b9 2f56 183d a21f 82bc
00000300: 5520 07bd ffcc 0bbc 9f37 00bd 4b17 6ebb
00000310: 5148 2d3c c83c ba3c 0035 db3c afa7 5d3c
00000320: db72 d5bc dd42 6ebc 3f97 873c 4d4c 1f3d
00000330: 9471 fbbb fd2b ccbc 3bee 8d3c 0d78 a63c
00000340: 6128 12bd e8cc f8bc dcf9 bbbc 644b 9f3b
00000350: 0697 023d e5bc 013c a942 a6bb d616 10bd
00000360: 997b 07bd 1932 f73c 637c db3c e7d2 03bd
00000370: 3a9d 87bc 3865 c8bc c41e 18bd 1394 b0bc
00000380: 59d1 793c fa88 f23c 503a bf3b d8cd f33b
00000390: 6533 093d 5b05 80bc 4c6d f7bc c86d 84bc
000003a0: 4e54 54bc aaa5 743a 3acf 06bd 32b3 89bc
000003b0: 15f4 f23c 0b30 ab3c 7ee2 82bc 4942 983b
000003c0: 7bda 06ba a205 08bb 502c 23bd 6c55 083d
000003d0: aeec 163d 5ed3 b9bc 4190 c2bc f618 c13c
000003e0: cd61 20bd 226b 0c3d aa01 743c 8cc5 1cbc
000003f0: 322e c13c 826e 9abc a73a a83b d18f deba
-0.009042968 -0.0039809914 0.014846392 -0.030526778 -0.023932798 0.022692421 0.013732976 0.014192745
-0.005440971 0.029424923 0.027144346 0.032012664 0.003608099 0.013015183 0.03720456 0.03834968
0.020979568 -0.027147798 0.022663038 -0.022189112 -0.039148632 -0.031811457 0.036408506 0.033956993
-0.012607096 0.0010707558 -0.020247884 -7.0909606e-05 -0.017872367 0.011443579 0.00083786267 0.03359506
0.033597294 0.034181435 -0.011572682 -0.036349975 0.0027960269 -0.01338921 0.01563823 0.009598965
0.031487886 0.006237825 0.02254524 -0.028848648 0.0010205738 -0.009852306 -0.017533755 0.014965287
-0.003224335 -0.012342266 0.038725734 0.026685147 -0.023147177 -0.00993253 -0.006391825 0.025668371
0.008587248 0.021067098 0.023681337 0.02787498 0.019805957 0.031107435 -0.018772734 0.019564109
0.035719093 -0.021701155 0.0117088845 -0.00075421203 0.03250127 0.0134980865 0.017289286 -0.017361375
0.027029416 -0.012317072 0.033243395 -0.0019304642 -0.0058228695 -0.023005722 -0.0047720424 0.015266036
-0.015660034 -0.02098156 0.015277436 0.016112043 -0.03731544 0.014257054 -0.0091334935 0.010685811
-0.02769551 -0.020455573 -0.037168045 0.023260372 -0.005289153 -0.008870405 -0.008593723 0.008069009
0.015424058 0.021284737 -0.007156283 -0.0077723037 0.0029195172 -0.008134428 0.022777677 -0.02640261
0.016173987 -0.009515944 0.029980963 -0.023946958 0.03741576 -0.01827495 -0.019133726 0.0050617517
0.019253377 0.003414368 0.01856389 0.014033958 0.0017252223 -0.020399302 -0.032984532 0.031774458
-0.015519399 -0.024469169 0.0073176534 0.022497838 -0.038792763 0.02241847 0.010062607 0.007110989
0.021489484 -0.040986244 0.0054832897 -0.0041310512 0.024285782 0.015535727 -0.003838182 0.01854619
-0.0056165494 0.017674042 0.038636766 -0.010791673 0.0063087344 -0.03493878 0.0005377785 0.02776737
0.00343677 -0.02954253 0.012997783 0.016192878 -0.022525573 0.011506245 0.016762208 -0.02611514
-0.030806694 -0.011425422 0.013124943 -0.0024774207 0.028972162 -0.031991635 -0.015984379 0.0093237115
-0.0002472961 0.01580879 0.037429508 0.038700473 0.03707066 -0.041390996 -0.016663212 -0.030591689
0.025615133 0.036885276 -0.026031975 0.03732128 -0.003882628 -0.0075243353 -0.003934925 0.04172477
0.035747226 0.015926966 -0.022185449 0.013579107 -0.0062632 -0.025897285 -0.035569713 -0.012149717
0.016426934 0.016116627 -0.02415701 0.031210614 -0.012878472 -0.00017590768 0.037191566 -0.015884224
-0.03298982 -0.008532762 -0.031303044 -0.0036329802 0.010576324 0.02273406 0.02675867 0.013528748
-0.026055744 -0.014542309 0.016551612 0.038891125 -0.0076734517 -0.024923319 0.017325511 0.020320917
-0.03568304 -0.030371144 -0.02294629 0.004861282 0.03188231 0.007918571 -0.0050738645 -0.035178028
-0.033076856 0.030175256 0.02679271 -0.032183554 -0.016554464 -0.024462327 -0.037138715 -0.021554982
0.015247666 0.029606331 0.005835809 0.00744031 0.03349628 -0.015627554 -0.030203484 -0.016165629
-0.012959553 0.0009332547 -0.03291247 -0.01680908 0.029657403 0.020896932 -0.01597714 0.0046465737
-0.00051442505 -0.002075531 -0.03983718 0.03328459 0.03684681 -0.022683796 -0.023750426 0.023571473
-0.03915577 0.034281857 0.014892975 -0.009568583 0.023581598 -0.018851522 0.005133945 -0.0016980116

2 f4 [10, 330, 2]
00000000: dc32 563c 7274 9939 d944 2c3c 91d6 23bb
00000010: e2ae a33b 20c0 3a3c de79 c8bc 532f 5d3c
00000020: 5a09 423b 6940 543c 343c 3d3c 3c08 f5b9
00000030: 7e82 8ebc 7492 44bc bcb5 843c cdab be3c
00000040: 2bdf a2bc c841 383c 9a21 3f3c 7b4e 353c
00000050: e841 993c 1429 b2bb d5b6 b6bc e203 c3bc
00000060: 57df fb3c c956 dfbc c69a efba ab03 f33c
00000070: 0616 4bbc 988c 73bc 2c00 d3bc 64ac d239
00000080: e4f6 9f3c 4923 e4bc 6fbd e2bc 181c dcbc
00000090: 5508 3e3b 40c2 d1bc 62d8 acbc e52b 473c
000000a0: a4e6 aabc f128 ba3b 06d8 a03c 6da5 d5bc
000000b0: 3308 9a3c af1a d1bc 3f44 313c b02c fcbc
000000c0: e470 3e3c bc05 debc 4e74 eb3c 16e2 38bb
000000d0: 849d 563c 410d 13bc 6a75 ec3c f1b7 c03b
000000e0: 6240 963b 642b a73c 6509 ccbc 413e 3dbc
000000f0: e3cd 073c 98ce 5a3a d634 ed3c d6e1 b3bc
00000100: f725 8f3c a175 233c de6d 033d 5b3f d4bc
00000110: 32de 48bc 74b3 73bc ba3f b5bc d7c8 aebb
00000120: 8ce2 d33c e1e8 d33c 858e 323c b127 123b
00000130: 4c06 b33c 33e7 91bc cc23 56bc f32d 5dbc
00000140: e6f9 163c ab2f a1bc 0a48 ef3c f92c d13c
00000150: d2a4 e4bc 62f5 cd3c 09b7 8d3a b9b4 d3bc
00000160: ff7d 25bb 13ee 9dbc af62 dcbc dada 163c
00000170: 78db e1bc 4bcb 88ba 399d 613b 8e11 68bc
00000180: d61b e13c ab6c 58ba 7ebc c5bc c40d 3b3c
00000190: d0c7 e43c 2e46 6cbc b9f9 e23b e6b3 b23c
000001a0: 7874 f0bb f358 a83b 6cb5 153c fb2f d63c
000001b0: 6d2c 373c 5847 53bc a90c 71bb a495 b6bc
000001c0: a1b5 a1bc 4f52 523c fc9b 333b 2c81 f6bc
000001d0: 7760 ea3c 0c53 6a3b b65d fd3b a1e1 643c
000001e0: 2451 3d3c 24ef 69bc 28f8 dc3c c05d e93c
000001f0: 07a2 71bc 00b9 653c 7374 853c 39a1 2c3c
00000200: 2111 84bc 0ef7 c63c 3dcd b43b e6e1 643c
00000210: ac1c 643b e21e acbc 1ede 7b3c 7486 c33c
00000220: 4e7a 1d3b b4ab 243c e798 ee3c 899c 13bc
00000230: 9543 7a3c 0980 04bb bb1d b4bc 8231 9abc
00000240: 7c1c 9c3c 2c8f b0bc 7b20 4ebc c259 ef3c
00000250: 65e3 063c 56c8 023c 7f21 043c 6fb8 0f3c
00000260: 548f 9abc 70e9 773b b772 373c 5da3 afbc
00000270: 2ba0 5ebc 2773 85bc 179a 8abb cce3 71bc
00000280: b416 76bc 6bfd bdbc 12ac b6bc 1b47 d03c
00000290: bb2d 4c3c b335 873c c38d d1bc 4d2c b13c
000002a0: 473d b9bc 2411 8a3c 09ea e53c be8e cebc
000002b0: 5da2 f9bc 42e8 50bc 4687 6cbc 3eff 90bc
000002c0: 9b8f 9abc e737 a23b c044 a03a 367a c03c
000002d0: 66d4 96bc b80c 45bc 35be b83c 1473 b33c
000002e0: bd8e f23c 6c09 9abc 0cc7 0abc 7bc4 383b
000002f0: 7108 8bbb 1fa8 d3bc a598 373c 17d5 bf3c
00000300: e6f8 bb3c 6453 96bc 29a6 3d3c a894 a5bc
00000310: 9126 013a ab5b d63c 8d3f 35bc 68bf 7fbc
00000320: d622 d7bc 2440 45ba bb8c 4a3c c305 b23c
00000330: 4f35 0f3b e975 97bc f0a7 b8bc 7993 eabc
00000340: 156d bc3b e73c e83c a53a 9d3b a4ec e9bc
00000350: ce90 f03b cfa3 87bc 8c3a 8dbb 7787 adbc
00000360: c040 7d3c eac0 0a3c f66f c3bc 2878 aeba
00000370: 415e 05bc b91d 4cbb ffb8 a4bb 2685 1fbc
00000380: b9b1 31bc 559b e2bb 3118 fb3b b6e4 a43c
00000390: 24f4 59bc 0ac6 d23c 2131 05bc d0eb 1c3a
000003a0: 833f e03c c3c5 bebc 266f 143c 252d f8ba
000003b0: 9e3d de3b bb45 423c cedc ee3b f561 bfbb
000003c0: 4418 d13c 18ac db3c 56ff b73a 7966 c73c
000003d0: cc2e a63c 53d3 e9bc bbe2 75bc 5860 203c
000003e0: b6ba b83c 83a2 f5bc 5366 a13b a94f af3c
000003f0: d124 dc3c 2ee1 aabc 8aed bf3c 282a 803c
0.013073649 0.00029269193 0.010514461 -0.0024999718 0.004995213 0.011398345 -0.024472173 0.0135000525
0.0029607625 0.01295481 0.011549998 -0.00046736177 -0.017396208 -0.011997808 0.016199939 0.02327528
-0.019881805 0.011246152 0.011665726 0.0110660745 0.018708184 -0.005437026 -0.022303978 -0.023805562
0.030746145 -0.027263062 -0.0018280379 0.029664835 -0.0123953875 -0.014865063 -0.025756918 0.00040182762
0.019526906 -0.027848857 -0.02767822 -0.026868865 0.0028996665 -0.02560532 -0.021099273 0.012156461
-0.020861931 0.00568115 0.019634258 -0.026079858 0.018802738 -0.025525419 0.010819494 -0.030783027
0.011623595 -0.027102344 0.028741982 -0.002821093 0.013099078 -0.008975328 0.028864581 0.0058813025
0.0045853117 0.020406432 -0.024906823 -0.011550487 0.008288833 0.0008346825 0.028955858 -0.021958273
0.017474158 0.009976775 0.0320872 -0.025909116 -0.012260007 -0.014874328 -0.022125114 -0.0053340006
0.025864862 0.025867881 0.010898237 0.002230149 0.021853589 -0.01781044 -0.013070058 -0.013499725
0.009214854 -0.01967605 0.029209156 0.02553414 -0.027910624 0.025141422 0.0010811995 -0.025843011
-0.0025252101 -0.019278562 -0.026902525 0.009207452 -0.027570471 -0.0010436563 0.0034425987 -0.014164342
0.027479094 -0.0008255939 -0.024137732 0.011416856 0.02792731 -0.014421029 0.006926742 0.021814298
-0.007338103 0.0051375567 0.009137493 0.026145926 0.0111800255 -0.012895428 -0.0036781228 -0.022288151
-0.019739928 0.012837007 0.0027406206 -0.03009089 0.028610451 0.0035755066 0.0077321185 0.01396981
0.01155499 -0.014278207 0.026973799 0.028487086 -0.014748103 0.014021158 0.016290879 0.010536485
-0.016121449 0.024287727 0.0055176304 0.013969874 0.0034807129 -0.02101082 0.015372781 0.023867823
0.0024029198 0.010050703 0.029125644 -0.009009489 0.015274902 -0.0020217916 -0.021986833 -0.018822435
0.019056551 -0.021552645 -0.012580986 0.029217605 0.008232926 0.007982334 0.008064627 0.008772
-0.018867172 0.0037828349 0.011196784 -0.021440202 -0.013587992 -0.01629026 -0.0042297947 -0.014763784
-0.015020061 -0.023192128 -0.022298846 0.02542453 0.012462075 0.016505098 -0.025580293 0.02162757
-0.022612227 0.016853876 0.028065698 -0.02521455 -0.030472929 -0.012750687 -0.014436549 -0.017699834
-0.018867305 0.0049505117 0.001222752 0.023495775 -0.018411826 -0.012026958 0.022551635 0.02190546
0.029609079 -0.01880332 -0.008470308 0.0028193283 -0.0042429497 -0.025837002 0.011205827 0.023417039
0.022945832 -0.01835031 0.01157526 -0.020212486 0.00049267063 0.026166758 -0.011062515 -0.0156096
-0.026261728 -0.00075245113 0.012362654 0.021731263 0.0021851843 -0.018488841 -0.022541016 -0.028634774
0.0057503083 0.028349353 0.0047982507 -0.028555222 0.007341481 -0.016557602 -0.004309958 -0.021182759
0.015457332 0.008468846 -0.023857098 -0.0013310956 -0.008140148 -0.0031145646 -0.005026936 -0.009736335
-0.010845595 -0.0069154897 0.007662796 0.02012859 -0.013302837 0.025729198 -0.008129389 0.00059860665
0.027374035 -0.02328766 0.009059703 -0.0018934353 0.0067822477 0.011857445 0.0072895056 -0.005840535
0.025524266 0.02681546 0.0014037888 0.024340855 0.020285986 -0.02854315 -0.01500767 0.009788595
0.022549968 -0.029984718 0.004925528 0.02140029 0.026873024 -0.020859327 0.023428697 0.015645102
